…
Epoch 48/50 - Train Loss: 0.0211, Acc: 0.9940, Dice: 0.8227, IoU: 0.7385 - Val Loss: 0.0379, Acc: 0.9889, Dice: 0.7206, IoU: 0.6180 - Test Loss: 0.0296, Acc: 0.9907, Dice: 0.7499, IoU: 0.6530
Epoch 49/50 - Train Loss: 0.0204, Acc: 0.9942, Dice: 0.8289, IoU: 0.7454 - Val Loss: 0.0401, Acc: 0.9894, Dice: 0.6544, IoU: 0.5626 - Test Loss: 0.0309, Acc: 0.9911, Dice: 0.6783, IoU: 0.5944
Early stopping
----------------------------------------------------------------
        Layer (type)               Output Shape         Param #
================================================================
            Conv2d-1         [-1, 16, 512, 512]             448
       BatchNorm2d-2         [-1, 16, 512, 512]              32
              ReLU-3         [-1, 16, 512, 512]               0
         MaxPool2d-4         [-1, 16, 256, 256]               0
            Conv2d-5         [-1, 32, 256, 256]           4,640
       BatchNorm2d-6         [-1, 32, 256, 256]              64
              ReLU-7         [-1, 32, 256, 256]               0
         MaxPool2d-8         [-1, 32, 128, 128]               0
            Conv2d-9         [-1, 64, 128, 128]          18,496
      BatchNorm2d-10         [-1, 64, 128, 128]             128
             ReLU-11         [-1, 64, 128, 128]               0
        MaxPool2d-12           [-1, 64, 64, 64]               0
           Conv2d-13          [-1, 128, 64, 64]          73,856
      BatchNorm2d-14          [-1, 128, 64, 64]             256
             ReLU-15          [-1, 128, 64, 64]               0
           Conv2d-16         [-1, 64, 128, 128]         110,656
      BatchNorm2d-17         [-1, 64, 128, 128]             128
             ReLU-18         [-1, 64, 128, 128]               0
           Conv2d-19         [-1, 32, 256, 256]          27,680
      BatchNorm2d-20         [-1, 32, 256, 256]              64
             ReLU-21         [-1, 32, 256, 256]               0
           Conv2d-22         [-1, 16, 512, 512]           6,928
      BatchNorm2d-23         [-1, 16, 512, 512]              32
             ReLU-24         [-1, 16, 512, 512]               0
           Conv2d-25          [-1, 1, 512, 512]              17
================================================================
Total params: 243,425
Trainable params: 243,425
Non-trainable params: 0
----------------------------------------------------------------
Input size (MB): 3.00
Forward/backward pass size (MB): 364.00
Params size (MB): 0.93
Estimated Total Size (MB): 367.93
----------------------------------------------------------------
--- Final evaluation on test set ---
…
